Training/cnn-one-fstride4-norm-40ep.pt (torch, 482439 bytes, 10 tensors)

conv.weight f4 [186, 1, 8, 30]
000000 7f 17 4c 3c c9 45 ce bc ad 83 79 3e 21 d2 0f 3e
       0.012456774 -0.02517976 0.24366637 0.14045002
000010 08 ad 15 3e a9 92 6a 3e 3c 0e 2b 3e 41 21 82 bd
       0.14616787 0.22907509 0.16704649 -0.06353999
000020 b1 3e 86 3d 6d 20 a5 3d c3 d2 cb 3c b0 53 6d be
       0.06554926 0.08062825 0.024880772 -0.23176455
000030 14 3a 99 be 05 22 c9 be 7a 45 c9 be cb 98 38 bd
       -0.29927123 -0.39283767 -0.3931082 -0.04506759
000040 7e e8 72 be 9d 3e c6 be 1f 5b 25 3d b4 55 25 3e
       -0.23721501 -0.38719645 0.040370103 0.16145974
000050 0c 97 52 3e 09 aa 82 3d 5b 24 58 3e e2 46 4d 3e
       0.20565432 0.06380088 0.21107619 0.20046571
000060 02 98 ae 3e 47 37 02 3f b7 cd bd 3e 7e 1f 0e 3e
       0.34100348 0.50865597 0.3707101 0.13879201
000070 8d f4 9b be e1 ab 87 3e 10 dd 9c bd 49 a2 8b bd
       -0.30460015 0.2649832 -0.07659352 -0.06818063
000080 36 ba 1b 3d bc bb 84 bd e2 38 6a bc 24 48 ea 3d
       0.03801938 -0.0648112 -0.0142957885 0.11439541
000090 03 fb 13 3e 25 f9 4e 3d 9e b5 5a 3e 5f 03 41 3e
       0.14451222 0.05053057 0.21358344 0.18848942
0000a0 4d 52 e5 bd db a2 ff bd 85 83 8d be 51 1e c0 be
       -0.11197338 -0.12482234 -0.27639404 -0.3752313
0000b0 fb 6f bb be 6f cc 39 bd 31 6f 16 be c4 39 b5 be
       -0.36608872 -0.04536098 -0.14690854 -0.35395634
0000c0 da ce 3d be 1c 82 d3 3d e2 74 58 3e 45 05 1c 3b
       -0.18535939 0.10327551 0.21138337 0.0023806852
0000d0 21 16 da 3d 91 b3 3d 3e 12 e7 f4 3d 0c 90 81 bd
       0.10648752 0.1852553 0.11958136 -0.06326303
0000e0 e3 1d 58 be 4f 55 11 be 52 82 88 be e0 b7 11 bd
       -0.21105151 -0.14192699 -0.26661927 -0.035575747
0000f0 14 f1 1f 3c 1e 91 4f 3e a9 a4 cb 3d 0a fc ec 3d
       0.009762067 0.20270202 0.09943516 0.1157151
000100 25 e9 40 3d 15 d8 dc bd cb 2a 16 3e e1 c9 52 3c
       0.047097344 -0.10783402 0.14664762 0.0128655145
000110 d7 ea ee 3d b1 72 ee 3c 3a 40 21 3d 3c c7 22 bd
       0.11665886 0.029107423 0.03936789 -0.039740786
000120 5d c6 93 3d 46 a0 66 be 40 3b 66 3c f1 65 f7 3d
       0.07215569 -0.22522077 0.014052212 0.12079991
000130 d7 5f 29 be 48 3e 88 be d8 9e 28 be 99 a1 33 3e
       -0.16540466 -0.26610017 -0.16466844 0.17542113
000140 95 0f a7 3e 8f a4 26 3e 81 f0 64 3e 34 c1 0f 3e
       0.32629076 0.16273712 0.2235737 0.14038545
000150 5d fa 11 3e f1 e5 f1 3c a4 5f 1b 3d 42 a9 97 3d
       0.14255662 0.02952859 0.037933007 0.0740533
000160 44 ce 70 3d ff 74 7a 3e 5f e2 79 be c6 54 89 3c
       0.05879046 0.24458693 -0.2440276 0.016764056
000170 00 0b 8b 3e fd e1 fc 3d 3a d8 5b 3e 2f b0 60 bd
       0.2715683 0.12347791 0.21469203 -0.05485552
000180 36 d3 e7 3d 3e e0 ce bc 34 15 5b 3d 70 23 04 be
       0.11319582 -0.025253411 0.053487018 -0.12904143
000190 ba fd 30 be 21 86 4e be a1 d1 32 be b7 c8 88 be
       -0.17284289 -0.20168354 -0.1746278 -0.26715633
0001a0 17 fb 9c 3c fd 80 59 3d 28 7a 0b be cb 92 38 be
       0.019162698 0.05310153 -0.13620818 -0.18024747
0001b0 c4 d7 b0 bc 52 0b 5d 3c fb a1 96 3d 5e 3d 38 be
       -0.02158726 0.0134914685 0.07355114 -0.1799216
0001c0 da 55 8a 3d 9c 15 ca 3d af 55 89 bb 7c 61 bd 3c
       0.06754656 0.09867403 -0.0041911225 0.023117773
0001d0 21 b0 0d 3d d3 19 02 be 85 ab 4b be c5 0f d7 3d
       0.034591798 -0.12705164 -0.19889648 0.10501055
0001e0 71 c0 f3 bd d2 96 af bc 7c 69 af 3d b9 db 7e bd
       -0.1190194 -0.021434221 0.085650414 -0.062221263
0001f0 db 03 14 be 01 76 77 3c 5c cb 77 3e e8 4d 66 3d
       -0.14454596 0.015103818 0.24198669 0.05622664
000200 f5 46 04 be a8 37 ce be 8d b5 b1 be 5c cf 01 be
       -0.12917693 -0.40276837 -0.34708825 -0.12676758
000210 b4 86 6c be 49 6d 69 be 7e ba 61 bc c9 c2 23 3e
       -0.2309826 -0.22795595 -0.013777373 0.15992273
000220 37 51 f4 3c 79 4a 0d be fe 28 ca be 0b d5 8d bd
       0.029823883 -0.1379794 -0.394844 -0.069254
000230 e7 f0 fd bd 0c 99 88 be 1d 4b 60 3d bf c5 a1 3e
       -0.12399464 -0.26679265 0.054759134 0.3159618
000240 a2 63 b4 3e 86 ec 17 3c 1e 2d 24 3e 07 12 6c 3d
       0.35232264 0.0092727 0.16032836 0.05763438
000250 fb f7 16 be 6f ff f7 3e fa 02 54 be 36 79 17 bd
       -0.14743035 0.48437068 -0.2070426 -0.03698083
000260 0b 5b b1 3d a9 68 56 be 9d 8d 41 be 84 61 8b bd
       0.08659943 -0.20938362 -0.18901677 -0.06805709
000270 a4 38 36 3e 91 b9 16 3d dc cc 2a 3e e0 dc 1b 3d
       0.17795044 0.036798064 0.1667971 0.03805244
000280 c9 d9 2c bc da 24 27 be ed 80 97 bd d9 61 52 be
       -0.010549971 -0.16322652 -0.073976375 -0.20545138
000290 89 c4 54 3d 97 49 dd bb f8 53 06 3c ea ad 4d be
       0.051945243 -0.0067531574 0.008198731 -0.20085874
0002a0 44 6e 28 be f6 45 b1 bd 97 87 2c be 91 47 83 be
       -0.16448313 -0.08655922 -0.16848598 -0.25640538
0002b0 3a d1 3d bd fd 9c 8d 3d ad c9 d9 bd 2e 36 7d be
       -0.046342112 0.06914709 -0.1063417 -0.24727699
0002c0 4e 13 0d be 1f 39 db 3c 21 7f 0e 3e 05 05 a2 3e
       -0.13776895 0.026760636 0.13915683 0.31644455
0002d0 84 dd 91 be 90 37 2b bb 1d ab c4 3b 00 5a 49 be
       -0.28489316 -0.0026125647 0.0060018436 -0.19663239
0002e0 71 aa 90 bc 55 89 22 bc 6c a0 7f 3e f0 39 a3 3e
       -0.017659398 -0.009920438 0.2496354 0.3188014
0002f0 df bf 8a 3e 74 8f cf 3d 57 90 6b 3e 58 2f 22 3e
       0.2709951 0.101347834 0.2300428 0.15838373
000300 f9 c7 1b 3d 8c 2d 30 be fe 59 52 bd 4b c3 14 3e
       0.038032506 -0.17204875 -0.051355354 0.14527623
000310 80 e0 69 3e 23 2a 6a be 86 b6 6a be 6b 63 ea bd
       0.22839546 -0.22867636 -0.2292119 -0.11444744
000320 f4 c4 c7 be 93 f3 bf be cf 55 47 3d 21 7c 42 be
       -0.3901745 -0.3749052 0.048665818 -0.18992664
000330 08 a2 e5 3c ac 12 8c be 15 9a c3 3c 28 48 9e 3e
       0.028031364 -0.27357996 0.023877183 0.30914426
000340 cd 9e 3e 3e 66 19 b9 3e 24 6b 4e bd 9d 17 cd 3d
       0.18615265 0.3615219 -0.050395146 0.100142695
000350 39 01 e6 3d 19 b9 fc bd f8 10 f8 3d 6c 70 37 bd
       0.11230702 -0.12339992 0.121126115 -0.04478495
000360 03 66 ee 3d 6d d9 d8 3d b0 32 70 3e fd 15 b9 3d
       0.11640551 0.10588346 0.23456836 0.09037397
000370 e2 ae 63 3e 8d 4c 0f 3d 3f d0 12 3e e0 6a 41 bd
       0.22234681 0.034985114 0.14337252 -0.047221065
000380 60 f8 bb bd ae a9 46 bc fa c9 6d 3e 63 c9 44 3c
       -0.09178233 -0.012125416 0.23221579 0.012010905
000390 33 b6 8a bd 8a 99 3b be 40 05 6c be 16 4a 34 bd
       -0.06773033 -0.18320289 -0.23048878 -0.044015966
0003a0 85 4c 6b 3e 34 95 ba 3e 97 50 ce 3e 5b 83 75 3e
       0.22978409 0.36441958 0.4029586 0.2397589
0003b0 96 7a 2a 3f 12 ba 24 3f c4 92 83 3e 41 78 20 3e
       0.665933 0.6434642 0.2569791 0.15670873
0003c0 c3 f2 f6 3d c7 36 66 be ec 0e 14 bf 2f 20 fc be
       0.12058022 -0.22481833 -0.5783527 -0.49243304
0003d0 82 66 17 be fa f1 53 be 19 4c 8e bc 01 6b ea 3d
       -0.14785197 -0.20697775 -0.01737027 0.114461906
0003e0 a0 20 51 3e 8f 56 97 3e 12 0b ae 3e 88 13 cb 3d
       0.20422602 0.29558226 0.3399282 0.09915835
0003f0 96 e3 8f 3d 1e 36 38 be 67 11 a2 be b0 ff 95 be
       0.070258304 -0.17989394 -0.31653902 -0.29296637

conv.bias f4 [186]
000000 f8 07 ed be 6f e2 38 be 75 27 69 bf 23 15 fe be
       -0.46295142 -0.18055128 -0.9107583 -0.496255
000010 b6 f0 c6 be 8a 3a dc be 27 e4 58 bf 35 e3 23 be
       -0.38855523 -0.43013412 -0.8472313 -0.16004641
000020 1f 2e 65 bf 2f 0d 18 bf 75 4e 0a bf ce ef ea be
       -0.895235 -0.59395117 -0.54025966 -0.4588608
000030 cb f7 80 bf b0 8f 22 bf 66 ce 16 bf ae e8 2c bf
       -1.007562 -0.635005 -0.5890869 -0.6754254
000040 bf 69 10 bf 5e ea 10 bf e8 3d bb be bb 28 fb be
       -0.56411356 -0.56607616 -0.36570668 -0.49054512
000050 83 e5 4e bf 45 15 5b be cf 18 be be 62 7f 17 bf
       -0.8081896 -0.21394832 -0.37128302 -0.59178746
000060 8a 72 3f bf e0 fb 33 bf d3 22 8d bf b3 76 93 be
       -0.7478415 -0.70306206 -1.1026253 -0.28801498
000070 09 ec fa be 48 12 54 bf 75 cc 4c bf 34 62 0d bf
       -0.49008206 -0.82840395 -0.79999477 -0.5522797
000080 cc 63 25 bf 30 c8 d8 be 33 5a b9 be cb d8 b7 be
       -0.646054 -0.4234023 -0.3620163 -0.35907587
000090 c7 a5 26 bf cc 00 39 bf 46 b4 35 bf 03 3d 57 bf
       -0.65096706 -0.7226684 -0.709782 -0.8407747
0000a0 91 92 a0 be 02 9c 6c bf 8b 56 18 bf 6d 8e 30 bf
       -0.3136182 -0.9242555 -0.59507054 -0.68967324
0000b0 76 aa 54 bf 10 8c 14 bf 69 85 b7 be 39 e6 54 bf
       -0.830726 -0.5802622 -0.3584397 -0.8316379
0000c0 f9 c5 93 be 0c a6 3a bf 2d 22 80 be d5 26 7b be
       -0.2886198 -0.7290962 -0.25026074 -0.24526532
0000d0 6c ae 11 bf 4c bc c1 be 9b 3d 12 bf 6d f7 60 bf
       -0.5690677 -0.37838972 -0.5712525 -0.8787754
0000e0 a4 73 f5 be 37 ae 5c bf 44 35 35 bd 89 c0 2d bf
       -0.4793979 -0.8620333 -0.04424025 -0.6787191
0000f0 8d 9e f6 be 48 3d 21 bd 64 9b ca be 1e 52 4d bf
       -0.4816784 -0.039365083 -0.3957168 -0.80203426
000100 ff f0 0c bf ec cf 49 bf 37 bd d9 be ae 37 51 3e
       -0.5505523 -0.7883289 -0.42527172 0.20431396
000110 88 be 45 bf 6e 91 39 bf ee c1 83 be 95 17 30 be
       -0.7724385 -0.72487533 -0.25733894 -0.17196496
000120 a5 24 12 bf 64 29 c3 be 75 f3 3e bf 46 e4 5c bf
       -0.57087165 -0.38117516 -0.74590236 -0.8628582
000130 21 e9 da be 07 a7 3e bf 5c 7a 71 be 2d 7e 0a bf
       -0.42755988 -0.74473614 -0.23581833 -0.5409878
000140 16 ae 21 bf 29 6d dc be 07 42 4f bf 40 4f 51 bf
       -0.6315626 -0.43052033 -0.80960125 -0.8176155
000150 79 3b db be c6 e8 f1 be 2e eb 1f bf dd 62 1f bf
       -0.42818812 -0.47247905 -0.6246823 -0.6226023
000160 c0 72 28 bf cc 0a 98 be 4c 20 f6 be ce 68 4e be
       -0.65800095 -0.29695737 -0.48071516 -0.20157167
000170 ce fa 8d bf 1b 58 ec be 3a 6f fc be c5 fe 09 bf
       -1.1092165 -0.4616097 -0.4930361 -0.5390437
000180 bf ff a8 be 70 9c 37 bf 4f b2 ff be 14 57 e6 be
       -0.3300762 -0.7172308 -0.49940726 -0.4498831
000190 33 7e 42 bf 9c 25 50 bf 9f 2e 8c bf f4 3b ad be
       -0.75973815 -0.8130739 -1.0951728 -0.33834803
0001a0 8f 23 11 bf 54 f4 08 bf be 2d 1a bf 27 4a 2f be
       -0.56694883 -0.53497815 -0.6022605 -0.1711813
0001b0 ef d8 3c bf 98 6e c8 be d7 67 9b be 24 7c ff be
       -0.73768514 -0.39146876 -0.3035266 -0.498994
0001c0 4e c0 85 be 4c 37 0c bf 33 58 19 bf 3f 90 0f bf
       -0.2612328 -0.54771876 -0.59900206 -0.5607948
0001d0 61 1b 6c bf fa 8c 96 bf d4 eb 83 be 01 fe 4c bf
       -0.92229277 -1.1761773 -0.2576586 -0.8007508
0001e0 8e 01 27 be 0c fe b2 be a3 79 0a bf 24 7e 4f bf
       -0.16309187 -0.34959447 -0.5409185 -0.8105185
0001f0 c2 c8 20 bf 0f 12 b6 be b1 f6 3d bf fe 26 a9 be
       -0.6280633 -0.35560653 -0.74204546 -0.3303756
000200 d8 f1 e7 3e 67 e4 cb be 04 23 2b bf 75 60 27 bf
       0.453017 -0.39822695 -0.66850305 -0.65381557
000210 87 a5 94 be 48 29 82 bf 14 5d 31 bf 46 ba 7f bf
       -0.29032537 -1.0168848 -0.6928265 -0.99893606
000220 3c f5 02 bf 37 b1 bb be bf 71 94 be 15 ae 3f bf
       -0.5115545 -0.36658642 -0.2899303 -0.74875003
000230 47 cc 4f bf a0 a3 44 bf 27 c9 26 bf b6 f5 12 bf
       -0.8117108 -0.7681217 -0.65150684 -0.57406175
000240 4d 08 40 bf 44 2f 73 be f1 f4 17 be ab 42 4f bf
       -0.75012666 -0.23748499 -0.14839531 -0.809611
000250 fb fd 74 bf 10 be d1 be d1 50 d4 be c8 be aa be
       -0.95700043 -0.4096532 -0.41467908 -0.3334868
000260 14 8f f9 be fc 6c 39 bf fb b2 f2 be b2 c7 50 bf
       -0.48741972 -0.7243192 -0.47402176 -0.8155471
000270 42 15 16 bf 8c 03 2c be 23 be 29 bf 21 07 f8 be
       -0.58626187 -0.16798228 -0.6630575 -0.4844294
000280 78 ea 9e be 30 ba 05 bf 7e c0 9a bf cb 0c 80 bf
       -0.3103826 -0.52237225 -1.2089994 -1.0003904
000290 99 21 d4 be 08 3c 85 bf 18 21 c4 be 2d 0d 12 bf
       -0.41431883 -1.0408945 -0.383065 -0.57051355
0002a0 2d 02 80 bf 38 aa 0b bf 77 b7 83 be 76 0c f7 be
       -1.0000664 -0.5455661 -0.2572591 -0.48251694
0002b0 31 65 2f bf f8 86 85 bf cd e0 86 bf d9 1a 16 bf
       -0.6851378 -1.0431814 -1.0537354 -0.58634716
0002c0 74 aa cf be 41 44 3c be 71 88 2a bf 17 85 e3 be
       -0.40559733 -0.18385412 -0.66614443 -0.44437477
0002d0 a2 3e 10 bf b3 a2 64 bf 2f 92 c6 be 59 d9 96 be
       -0.5634557 -0.8931076 -0.38783404 -0.29462698
0002e0 d7 7e 59 bf 6a 89 30 bf
       -0.8495917 -0.6895968

fc1.weight f4 [32, 1674]
000000 d1 22 2c 3c 86 63 6d bb ec fc c3 bb e8 12 8a 3c
       0.010506348 -0.003622265 -0.0059810784 0.016854718
000010 c4 71 b4 bb ed 48 34 bc a4 83 51 3c bb ed 39 bc
       -0.005506726 -0.011003715 0.012787733 -0.011348183
000020 10 d8 f9 3b cb bb 90 bc 55 93 81 bc 0f 7b d5 bc
       0.0076246336 -0.017667672 -0.015817324 -0.026059655
000030 7e 98 13 bc ab b1 14 3c 77 17 23 3c 1d 9d bd bc
       -0.009008525 0.0090755625 0.009954325 -0.023146207
000040 e8 dd f2 3b 27 10 6d bb 51 10 81 bc 95 d6 96 bc
       0.007411707 -0.0036172958 -0.01575485 -0.018412868
000050 8c 18 88 bc 8c f8 34 bc 82 7c 36 bc 1c be d2 bb
       -0.016613267 -0.011045586 -0.011138083 -0.006431354
000060 dd 5e c2 b9 47 83 b6 bc b3 d2 4e 3c 3f fa 57 3c
       -0.00037073242 -0.022279395 0.012623477 0.013182222
000070 bf e0 67 bc 14 02 b7 bb 38 e7 21 bc 10 8c c6 bc
       -0.014152705 -0.0055849645 -0.009881787 -0.024236709
000080 6d bd 27 3c 88 0a 9b bb 9a da 81 3c b6 55 b5 3a
       0.010238034 -0.00473148 0.015851308 0.0013834748
000090 d5 19 36 bc 37 77 24 3c 68 ea aa 3c d4 35 e8 3c
       -0.011114557 0.010038189 0.020863727 0.02834598
0000a0 03 76 65 3c 16 4f 9d 3c 4e 84 5c 3c ee b9 84 bc
       0.014005187 0.01920275 0.013459278 -0.01620194
0000b0 80 c8 fc 39 b7 32 6f bc c8 dd 6e bc 44 2d a8 bc
       0.0004821457 -0.014599494 -0.014579244 -0.020529397
0000c0 68 d2 6a 3c 30 19 4d bb da 10 9e 3c 29 96 20 bc
       0.014332391 -0.003129553 0.019295145 -0.009801426
0000d0 02 89 b9 3c 54 20 bd 3c 29 ef 7e 3c 28 2e 2f 3b
       0.022648338 0.023086704 0.01555995 0.0026730392
0000e0 ff e3 4d 3b 50 6d 89 3b 92 aa 00 bd 46 12 1a bc
       0.0031416414 0.0041939393 -0.03141267 -0.009403771
0000f0 8b 1a 09 3c 7d 7d 77 bc e5 19 e8 3c b8 43 6d bd
       0.008368145 -0.015105602 0.02833266 -0.05792591
000100 34 22 26 bc d4 cd a8 3b f8 b0 ae 3c 08 cc 10 3b
       -0.010139991 0.0051514897 0.02132462 0.0022094268
000110 44 a9 b0 3c 8a f7 a8 bc 94 ce 17 3c 44 79 7f 3c
       0.021565087 -0.020625848 0.009265561 0.015592877
000120 17 45 72 bc 18 3c b8 bb 5e b8 6c bc 8b 4e 9b 3b
       -0.01478698 -0.005622398 -0.014448253 0.0047395877
000130 1f 65 39 3c 27 7f 45 bb 0f 6a 98 bc 5a 9f bd 3b
       0.011315613 -0.0030135603 -0.01860526 0.0057868185
000140 08 56 18 bc ea ff bf bc 0f 33 67 bb 6b b5 84 3c
       -0.009297855 -0.023437459 -0.0035278236 0.016199788
000150 bd cd 93 bc 0a 89 c1 bc 53 c3 8a bc c7 5a 0d bc
       -0.01804244 -0.023624916 -0.016938841 -0.0086276
000160 c3 47 8a 3c f8 b6 c8 bc 84 13 fa ba 78 9c 92 3c
       0.016879922 -0.024501309 -0.0019079302 0.017896876
000170 4e 4a 86 3c 68 60 7d 3c 8e fb 27 bc 81 24 38 bc
       0.016392853 0.01546488 -0.010252846 -0.011239172
000180 fc 89 9f 3c 00 3e dd bc 46 47 3a bc fa a8 ed 3b
       0.019474976 -0.027007103 -0.011369532 0.0072528096
000190 44 e6 92 3a 15 4c b8 bc 49 51 46 3c 23 5d 3c bc
       0.001120754 -0.022497216 0.012104341 -0.011496815
0001a0 2d 93 5e 3c fb 6b 90 bc 3c 6a b8 3b 1c 54 21 3c
       0.013584894 -0.017629614 0.0056278985 0.009846713
0001b0 c0 39 97 3b e6 48 f0 bc 26 79 c2 bc 8d 41 31 bc
       0.0046150386 -0.029331636 -0.023739409 -0.010818851
0001c0 49 72 ec bc b8 49 3e bb e7 9e 58 3a 2b d9 92 bc
       -0.02886309 -0.002903564 0.00082634244 -0.01792582
0001d0 fe 5c 84 3b c0 8d 82 ba f8 1c e5 3b f4 44 94 bc
       0.004039406 -0.0009960458 0.0069919787 -0.018099286
0001e0 91 73 8d bc c6 69 8d 3c d2 b0 0d bc 92 cd 83 bc
       -0.01726702 0.01726235 -0.008648114 -0.016089235
0001f0 50 f8 66 bc a4 01 8f 3c d6 b9 64 bc d4 af e8 bc
       -0.014097288 0.017456837 -0.013960322 -0.028404154
000200 27 a3 a7 bc 49 df 8f bb a6 59 e1 bc c7 22 02 bc
       -0.02046354 -0.0043906313 -0.027508568 -0.007942862
000210 5d 9f 88 3b 8b fa 8b bc a4 4e 30 3c 74 30 03 3c
       0.004169388 -0.017087242 0.010760937 0.008007158
000220 ec c0 07 bb 2c 8b e7 ba e0 3e 8d bb f8 43 89 3b
       -0.0020714356 -0.0017665378 -0.004310474 0.0041890107
000230 6c b5 d0 bb d6 f0 da 3c 94 44 3c 3c 51 00 f0 3c
       -0.0063692834 0.026726168 0.01149096 0.029297026
000240 2c c7 43 3b 70 9c c2 bc d0 0c ca ba 6c 47 a7 3b
       0.0029873354 -0.023756236 -0.0015415195 0.0051049497
000250 ae a3 ba 3c f0 9d 03 3b 38 39 93 3c 54 0b 97 3b
       0.022783127 0.0020083152 0.01797162 0.0046095047
000260 cf 85 8a bc 05 e8 b3 bc 93 44 81 ba 0c dc f4 bb
       -0.016909508 -0.021961221 -0.0009862356 -0.0074725207
000270 2d 48 7f bc 16 e2 8d 3c 80 d4 0d 3c 3a 4d 93 bc
       -0.015581173 0.01731972 0.008656621 -0.01798116
000280 31 fc b3 3b c0 8a 1f 3b 43 c2 77 bc fa 8a 88 bc
       0.00549271 0.0024344176 -0.015121999 -0.016667832
000290 a0 74 c6 bb 39 33 c5 bc 16 b6 70 bc d4 44 3c 3c
       -0.0060563833 -0.024072276 -0.01469185 0.011491019
0002a0 81 36 8e bc d0 b1 ae 3a 83 8a c5 bc 6e 58 ec bc
       -0.017359974 0.0013328139 -0.0241139 -0.02885076
0002b0 df 4a 08 3b 4b 8d 0e 3c 2f 2c 3e bc 87 ea 79 bc
       0.002079658 0.008700679 -0.011607214 -0.01525367
0002c0 3a c1 2a bc 44 8a 51 bc 87 19 51 3c 8d 8b 4d 3c
       -0.010422045 -0.012789313 0.012762434 0.0125454785
0002d0 a2 ab 74 bc 13 d8 c3 3c da e8 dd 3b 21 b8 c4 bc
       -0.014933499 0.023906743 0.006772143 -0.02401358
0002e0 98 ac 4d b8 1e 85 c3 bc 03 10 16 3c 5b 20 cc bc
       -4.903655e-05 -0.023867186 0.009159091 -0.024917772
0002f0 b7 c9 27 3c 00 8b 59 3c 2e c7 8a 3c 02 4f bb bc
       0.010240964 0.013277769 0.01694068 -0.022864822
000300 3c 88 5a 3b da 69 d3 bb 9d 3f e7 39 38 47 e4 3a
       0.0033345362 -0.0064518275 0.0004410715 0.0017416244
000310 71 e5 a1 3c 7b 01 44 bc c0 e0 9b 3c 7e 9c c7 3c
       0.019762727 -0.011963244 0.019028068 0.024366613
000320 47 74 8c bc a4 44 97 bc 22 b8 92 bc 10 7c d7 3c
       -0.01714529 -0.018465348 -0.017910067 0.026304275
000330 1d 6b ea ba 8e ef 0f bc dd 29 a1 3c db cb ab ba
       -0.0017884705 -0.008785142 0.019673282 -0.0013107018
000340 51 f6 a5 3c 46 4a 9d bc 1e 0a ae bc 19 c7 b4 bc
       0.020259054 -0.019200455 -0.021245059 -0.022067593
000350 b9 6b 4c 3c 75 9f e5 bb f8 92 ad 3b 11 5e 7a bc
       0.012476855 -0.007007534 0.005297061 -0.015281216
000360 d3 13 2a 39 00 4d ab bb 39 57 90 bc b2 dd 25 ba
       0.00016219848 -0.005227685 -0.017619716 -0.00063272857
000370 2e f7 19 3c 5e 92 82 bb 35 14 b0 3b ba da 89 3c
       0.009397311 -0.0039847335 0.0053735026 0.01682793
000380 b9 56 21 bc 72 aa 2f bd 4d f9 f2 3b d1 b6 a7 3b
       -0.009847336 -0.04288716 0.007414973 0.005118229
000390 3e 8e 64 bd cf e8 22 bd ca ea 62 bd 85 36 6f bd
       -0.055799715 -0.039772805 -0.055399694 -0.058401603
0003a0 a1 40 30 bd c1 69 0d bd 04 b3 7a bb 8f aa 53 3c
       -0.043030385 -0.034524683 -0.0038253674 0.012919082
0003b0 f7 c2 da bc 3e 7d 58 bc fb ae e3 bc ea 26 86 3c
       -0.026704295 -0.013213454 -0.027793398 0.016375978
0003c0 f1 09 f6 bb 04 23 33 3c 64 94 b5 bc e3 56 52 3c
       -0.0075085093 0.010933641 -0.022165485 0.012838098
0003d0 e7 80 e4 bc b1 f0 8d bc 48 b4 84 3b ea 99 f5 3b
       -0.027893497 -0.017326685 0.0040498115 0.0074951546
0003e0 73 8a 0b 3b 04 5d d8 bc aa 78 96 bb 4a a0 d9 3b
       0.002129224 -0.02641154 -0.004592021 0.0066414224
0003f0 5b cb d3 3c a9 42 bb bc 8e bc 83 bc 58 c5 1f bb
       0.025853803 -0.022858934 -0.01608112 -0.00243791

fc1.bias f4 [32]
000000 c3 6e 1d bd b2 d9 7e ba 83 f5 eb bc 35 aa 93 b5
       -0.03843571 -0.000972177 -0.028803593 -1.100189e-06
000010 ce 25 20 be 17 9a 0a bd bf 64 8c 3e 7e c9 1e 3b
       -0.15639421 -0.033838358 0.27420613 0.0024228985
000020 a1 4c ce bc ad 28 bd be 32 cb 8f be 0b a2 03 bd
       -0.025183024 -0.36945096 -0.28084713 -0.032136958
000030 8f f7 f7 bd 76 e2 06 bd 81 7f ac bd 09 02 1e bd
       -0.12107765 -0.032930814 -0.08422757 -0.03857616
000040 e3 43 b2 bc c6 39 5a bd a1 0e ca bb 18 b3 fe bc
       -0.021760887 -0.053277753 -0.0061662947 -0.031091258
000050 63 fb b4 bb c0 c6 61 bd 56 45 48 bd 32 49 4e 3c
       -0.0055231317 -0.055121183 -0.04889425 0.012590693
000060 46 59 c7 bc 41 20 47 be e7 ad 52 bc 76 5e 37 bc
       -0.024334561 -0.19445898 -0.012858844 -0.011191955
000070 6b c5 9f be 94 f8 00 bc a0 65 a7 bd 13 1c 7b bd
       -0.31205305 -0.007871766 -0.0817368 -0.06130607

fc2.weight f4 [128, 32]
000000 fd 57 80 3d 20 2c 93 3d 4a e8 27 3e 28 1f e2 bd
       0.062667824 0.071861506 0.16397205 -0.11041099
000010 fb b0 27 3e d2 ad d0 bd 64 aa b8 bd 91 ce f4 bd
       0.16376106 -0.101894036 -0.090168744 -0.11953462
000020 f4 ca fe bd b9 09 d9 be 6c 2d 1d 3e c2 76 ad bd
       -0.12441054 -0.4239023 0.15349358 -0.08469917
000030 27 60 9e 3d 69 c8 bc bd 4f bc ff bd 5c 73 56 3d
       0.07733183 -0.09217913 -0.12487089 0.05235611
000040 38 76 31 3d 2e d8 c4 be 38 c2 ce 3c 5d e8 88 3d
       0.043325633 -0.38446182 0.025239095 0.06684945
000050 fa 27 d8 bd dc bf 0f be 83 4c 9c 3c f6 19 c7 bd
       -0.105545 -0.14038032 0.019079452 -0.097217485
000060 a0 82 e4 bc 47 e6 53 bc e0 d5 90 3d 8d 86 6e bd
       -0.027894318 -0.01293332 0.070720434 -0.058233786
000070 40 e8 aa 3d af c1 63 be 70 42 f9 bd 40 54 85 bd
       0.083450794 -0.22241853 -0.12170875 -0.0651021
000080 09 8f 0f 3e e5 cf 05 3e 8a ff 87 3d 4c 5b 9f 3d
       0.14019407 0.13067587 0.06640537 0.07781085
000090 85 05 a2 3d 04 f1 bc 3c 65 d7 05 bf 7b 95 cd bd
       0.07911209 0.023064144 -0.5228179 -0.10038277
0000a0 d1 fb fb 3b 93 37 ac bd f4 c9 4c bd 92 c2 9c bd
       0.007689931 -0.084090374 -0.049997285 -0.07654299
0000b0 f7 7d ae bd 66 57 f5 3d 1e c7 2a bc 39 55 17 3e
       -0.0852012 0.119795606 -0.01042345 0.14778604
0000c0 74 80 ac bd 99 32 eb bd 55 90 9f bd 44 02 0d 3d
       -0.08422938 -0.1148426 -0.07791201 0.03442599
0000d0 42 50 00 3e f4 6b b7 bd ae 60 4c be 42 0a 31 be
       0.12530616 -0.08956137 -0.19958755 -0.1728907
0000e0 c0 0d e7 bd 47 15 cc be e0 ee 07 bd f3 73 32 3e
       -0.112819195 -0.39859983 -0.033186793 0.17427044
0000f0 a2 3c 98 bf 56 77 23 3c 4c bc f2 bd 14 25 99 3a
       -1.1893504 0.009977182 -0.11852321 0.0011684024
000100 49 db 27 3e 9f 82 44 3d d7 7a 55 bd d9 08 c4 3c
       0.16392244 0.047976132 -0.052119102 0.02393
000110 fe f5 8f bd c8 6c 8f 3d 40 28 90 bc b7 be 2f 3e
       -0.07029341 0.0700317 -0.017597318 0.17162596
000120 bf 51 a4 3d d4 d0 60 bf 24 16 62 3e ca 43 5b bd
       0.08023404 -0.87818646 0.22078758 -0.053531446
000130 f8 77 33 3e 07 da 0a bc ff b2 da 3d 20 03 0e 3c
       0.17526233 -0.008474833 0.10678672 0.008667737
000140 68 ac 91 3c e7 82 61 3e 4f dd 0f 3c f2 de 26 3e
       0.017782405 0.22022592 0.008780791 0.16295984
000150 16 70 a5 3d 5f 54 39 bd b8 eb bf bc ee 6a 7a 3d
       0.08078019 -0.04524648 -0.02342783 0.061137132
000160 38 b4 9d 3c 9a c9 8f bd a4 20 1f be e0 f5 1f 3d
       0.019250974 -0.07020874 -0.15539795 0.039052844
000170 a1 9e 38 bb 18 c0 7d bd e4 b0 3c bd 72 b3 ec bb
       -0.0028170722 -0.061950773 -0.046067134 -0.00722354
000180 0a 97 1f bc 68 07 b1 bd cb 90 79 bd bd 99 a1 3c
       -0.0097406 -0.08643991 -0.0609291 0.019726628
000190 f0 90 39 3e 9f 22 3f be 2e 7e 42 be 82 1c 8f 3d
       0.18121696 -0.1866555 -0.18993446 0.06987859
0001a0 e8 d6 46 3e 1e cb 21 3e 2c c6 84 3e db 3b 04 bd
       0.19417918 0.1580014 0.25932443 -0.032283645
0001b0 5d 4f e8 3c 24 89 45 3d 8b c5 bc 3d 6c 4c 79 3d
       0.028358156 0.04822649 0.09217366 0.060863897
0001c0 43 00 7a 3d e6 c6 5b 3e 60 6f 97 3d 70 90 87 3d
       0.061035406 0.21462592 0.0739429 0.06619346
0001d0 55 1d 2b 3d ec e9 d5 bd e0 75 13 be 14 9a 69 be
       0.04177602 -0.10445008 -0.14400434 -0.22812682
0001e0 10 16 2f be 0b 90 89 be f1 a2 ca bd 5a 46 16 be
       -0.1709826 -0.2686771 -0.0989436 -0.14675274
0001f0 5a 81 af be c2 47 95 3d 94 a3 18 3e 6d ee db 3d
       -0.34278375 0.07289077 0.1490615 0.107388355
000200 bf d1 0d 3d 2a 9e d3 bd 91 c1 c2 3d 5a 69 50 3e
       0.034623858 -0.10332902 0.09509576 0.20352688
000210 dd 6c 07 be b9 74 e4 3d 25 7a 12 be 79 ee d7 bd
       -0.13225122 0.111550756 -0.14304407 -0.10543532
000220 5d d0 19 be 1b 99 77 be 4b bd 98 bd 97 50 38 3e
       -0.1502089 -0.24179499 -0.0745798 0.17999493
000230 e0 6b 98 bd d9 2d 11 3d 60 01 33 bd cf a1 aa bd
       -0.074424505 0.035444114 -0.043702483 -0.08331644
000240 f7 20 b8 bd 60 31 20 be a9 ce 09 ba eb db 2d be
       -0.089906625 -0.15643835 -0.000525693 -0.16978423
000250 a0 1c 4e bd 5e 62 2f 3e d7 8d 8d bc 34 84 63 3d
       -0.050320268 0.17127368 -0.017279549 0.055546
000260 a6 09 c1 3c 2a f7 a5 bd a0 8e a3 3c 49 96 9e bd
       0.023564171 -0.081037834 0.01996547 -0.07743508
000270 58 a7 54 bd 17 0b 40 bd 86 ea aa bd 88 5e eb bd
       -0.051917404 -0.046885576 -0.08345513 -0.1149264
000280 9a 6f f2 3d ce db a8 3d 7f 41 ac 3d b4 c2 11 be
       0.118376926 0.082450494 0.0841093 -0.1423443
000290 da ff 80 bd f0 e2 63 3d a7 27 24 3e 40 6f 1e 3d
       -0.062988 0.055636346 0.16030751 0.038680315
0002a0 3b cc 91 3d f7 7d a1 be f5 5d 9e 3e e0 57 f7 3b
       0.07119032 -0.31541416 0.3093106 0.0075483173
0002b0 17 0f c2 bb 8c f6 cc 3d a7 76 1b be d4 3e 29 bd
       -0.005922209 0.100079626 -0.15181981 -0.041319683
0002c0 3c 75 9e bd 4e ca 6a 3d 09 66 a7 bc 4e c7 b2 bd
       -0.077372044 0.05732184 -0.020434396 -0.087294206
0002d0 20 3c b8 3c f6 92 aa bd 06 a8 82 bb 5f 61 3f 3e
       0.022489607 -0.08328812 -0.003987315 0.18689488
0002e0 c8 11 a4 bc 22 3a 8d bd ad e7 82 3c 49 c4 af bc
       -0.02002801 -0.068958536 0.015979612 -0.0214559
0002f0 6e 31 bd be e5 3b 0a 3e 9c b8 f1 bc b1 ea c8 3d
       -0.36951774 0.1349941 -0.029506974 0.09810389
000300 00 8b 30 be 7c 9d 88 bd 48 4d f9 bd 50 d1 e2 3b
       -0.17240524 -0.06670663 -0.12172943 0.0069219247
000310 32 a7 26 be 2c 6b 69 3d 36 6d df 3e 9f e5 f7 bd
       -0.16274717 0.056986973 0.4363801 -0.121043436
000320 cd 45 f1 bc 6f 6f 8e bb 57 64 fa 3c 44 f9 cb bd
       -0.029452229 -0.00434678 0.030565424 -0.09959653
000330 19 a1 2b bd 7c 9e b4 3d f7 b5 e1 bd 96 0a 0b 3e
       -0.04190168 0.08819291 -0.11021035 0.13578257
000340 be 2c 02 be a2 6c f6 3d e5 94 48 3d d6 6b c9 3d
       -0.1271238 0.12032439 0.048970122 0.09835021
000350 d6 54 53 be 5b f1 23 be 06 fe b6 3c a9 9d c6 3d
       -0.20637831 -0.16010039 0.022337925 0.0969804
000360 71 54 99 3d 20 7f 94 bc 83 6d 82 bc ab 06 0b 3e
       0.07486809 -0.018127024 -0.01592136 0.13576762
000370 ad 7d 45 bf 98 80 24 be ca d6 3e 3d d1 91 0f 3e
       -0.7714489 -0.1606468 0.046591558 0.14020468
000380 00 ac af b9 98 f4 30 3d f5 83 31 3e 22 ab 91 3d
       -0.0003350675 0.043202013 0.17335494 0.07112719
000390 89 9c 09 3b 44 ab 80 3d 2c 8b 9b bd 8b ad ec bd
       0.0020997843 0.06282666 -0.07594904 -0.11556538
0003a0 55 9b 61 3d 17 4a 85 be a2 42 86 3c 00 bf 5d 3c
       0.055079777 -0.2603309 0.016389195 0.0135343075
0003b0 86 36 bc bd 94 ec 66 bd bc b6 ec bd 0b f8 97 3d
       -0.09190087 -0.056377962 -0.11558291 0.07420357
0003c0 bc c7 f0 bd e1 c4 83 bc ba cf 18 be be a4 16 be
       -0.11756846 -0.01608509 -0.14922991 -0.14711282
0003d0 29 a3 14 be 1e 31 8c bd 5a 36 0f 3e 1f b0 d3 3d
       -0.14515366 -0.06845306 0.13985577 0.10336327
0003e0 9a d8 d9 3d 52 32 30 be 43 1e 2d 3e c0 6c fc 3d
       0.106370166 -0.17206696 0.16906075 0.1232543
0003f0 e6 f8 0f be c7 30 26 3e 65 40 7e 3d 89 bb 84 bd
       -0.14059791 0.16229545 0.06207313 -0.06481082

fc2.bias f4 [128]
000000 d8 c6 db 3f 34 8e a4 3e 14 b0 b5 3e f0 50 01 3f
       1.7170057 0.32139742 0.354859 0.50514126
000010 e5 4e 20 bf f3 17 8b 3e c8 50 1d 3f 59 2d 86 bd
       -0.62620384 0.2716671 0.6145139 -0.06551618
000020 77 64 a4 bd 15 74 3d be f3 ef 2d bf 61 e1 0c 3e
       -0.08026975 -0.18501313 -0.6794426 0.1375785
000030 09 8f 1d 3e 39 64 f6 be 1a cb 77 3e 09 d0 05 3f
       0.15386595 -0.4812334 0.24198571 0.5227056
000040 35 cd ff 3d 8a 0d f1 bc a1 75 ae 3e f7 49 94 3e
       0.12490312 -0.029425401 0.3407412 0.2896268
000050 e9 05 1d bd c3 49 7e 3c 97 f2 81 be f3 88 ca bd
       -0.038335714 0.015520516 -0.25380394 -0.09889402
000060 4a 5f d3 be 45 c2 28 bf 57 96 43 be 58 c7 94 be
       -0.41283637 -0.6592143 -0.19100319 -0.29058337
000070 ae fe 01 3f a7 3b 2a 3e 58 eb 8a be 6c 59 6d 3d
       0.50779235 0.16624318 -0.27132678 0.057946607
000080 01 99 93 be 42 c1 d6 be 29 2a b5 3e 81 e9 6a be
       -0.2882767 -0.4194432 0.35383728 -0.22940637
000090 be d3 c7 be 65 e9 70 3e 91 b5 7c 3c 8a 4c 42 be
       -0.39028734 0.23526533 0.015424148 -0.1897451
0000a0 73 fe 97 be 45 43 8f bf 36 c4 b7 bf 74 e1 9f be
       -0.29686317 -1.1192404 -1.4356754 -0.31226695
0000b0 f9 06 33 3f 5c 4d 43 3e 91 35 81 3e df 69 10 be
       0.69932514 0.19072479 0.2523618 -0.14102887
0000c0 fb a5 f8 3d 59 ca 8f 3d ce b7 5d bf a6 03 f4 be
       0.12141033 0.07021017 -0.8660859 -0.47659034
0000d0 7d 23 fc 3d 38 c8 4d be d0 7e ef bd 91 02 b3 3d
       0.12311456 -0.20095909 -0.116941094 0.08740724
0000e0 36 9b b9 bd 59 57 89 be d3 55 00 bf 3e fe ed 3e
       -0.09062807 -0.26824453 -0.5013096 0.46483034
0000f0 ff fe 3d 3f 60 4c ac 3b db 09 2a 3e f3 1c 24 be
       0.7421722 0.005258128 0.16605322 -0.16026668
000100 97 6a eb bd 4e 66 a8 be 07 4d 28 3e 01 ba 4a 3f
       -0.1149494 -0.32890552 0.16435634 0.7919007
000110 51 14 04 be cd b8 59 bf 2c ee e4 be 9b c2 8d 3d
       -0.12898375 -0.8504761 -0.4471296 0.06921884
000120 7c 45 fe be a7 71 36 be 71 eb 8a 3f 23 ba 05 be
       -0.49662387 -0.17816792 1.0853101 -0.13059287
000130 4d 59 86 be 56 ca 82 bd 81 66 35 be ea e1 8d bd
       -0.26240006 -0.06386249 -0.17714883 -0.06927855
000140 7a 3f 09 3f fb f3 8a 3d 6d a6 60 3e 67 2d ab 3d
       0.5361248 0.06784817 0.21938486 0.08358269
000150 10 c9 77 3f 7a 2d 8f 3e 57 a6 9a be 99 6d b9 be
       0.9679117 0.27964383 -0.30205032 -0.3621643
000160 df 7c e7 bf f3 d0 33 3e db 9d a3 3e 0c 1b 95 bf
       -1.8084983 0.17560177 0.31956372 -1.1648879
000170 cd db 4f 3e cb 7d 03 3f 76 a7 cd be 4b fe 0d be
       0.20298691 0.5136382 -0.40166825 -0.13866536
000180 56 e7 96 be 89 3a 86 bc 19 5e 71 3d 1b c6 2f bb
       -0.2947337 -0.016385334 0.05892763 -0.002682096
000190 6b 3c e9 3e cf 59 83 bf 62 59 e9 ba fd 95 10 3e
       0.45553908 -1.0261782 -0.0017803127 0.14119716
0001a0 d3 2c ba bd 7d 09 08 3e a5 fd 6b be 30 72 31 be
       -0.09090581 0.1328487 -0.23045976 -0.17328715
0001b0 34 0d 08 bf 26 93 04 3f 89 c9 7b be e0 4b e5 be
       -0.53145146 0.5178703 -0.24588598 -0.4478445
0001c0 e4 a1 27 3e 15 e0 62 bf a7 9a a7 be 3c 86 f7 3f
       0.1637035 -0.8862317 -0.32735178 1.933784
0001d0 52 35 ae be fb f6 8a be 1f e0 0f bf 9a ef 3a be
       -0.34025055 -0.27141556 -0.56201357 -0.18255463
0001e0 0a ed d6 be a2 b1 56 3e 65 98 05 3f c1 0d d3 3c
       -0.4197772 0.20966199 0.5218566 0.025763394
0001f0 e6 76 e1 3e 5e 0b 93 3e a4 ea ed 3e 76 85 64 be
       0.44036025 0.2871961 0.4646808 -0.22316536

fc3.weight f4 [128, 128]
000000 97 f0 04 3d 6f bc 18 3e a9 76 7d 3c 9f 25 93 bc
       0.032456007 0.14915632 0.015470185 -0.017962275
000010 b0 90 14 3d 2d 72 80 3c 38 a1 0f 3e a0 50 19 bd
       0.036270797 0.015679443 0.14026344 -0.037430406
000020 cc 28 9b bd 44 a8 89 3d 1a 8b 8d bd ce 93 49 bd
       -0.07576141 0.06721547 -0.06911297 -0.049213223
000030 6c aa 6b 3d f2 73 d5 bd ea 49 61 3c aa 0c 34 bd
       0.057535574 -0.104225054 0.013750533 -0.04395739
000040 19 0a 13 3c 4f 66 e5 3d 37 7a 5c 3d 98 16 45 3c
       0.008974575 0.112011544 0.05382749 0.012029313
000050 bd 85 83 be 8a fd 12 3d d0 d6 c3 3b 24 c0 fb bd
       -0.25687972 0.035886325 0.0059765354 -0.12292507
000060 5e 25 c8 bc a4 5c 93 bb a3 86 c5 bc 0b 20 d8 b9
       -0.02443188 -0.0044971276 -0.024112051 -0.00041222604
000070 f1 70 09 3e fb 24 f5 bd 27 11 35 bc 50 15 4e be
       0.1342199 -0.11969944 -0.011051453 -0.20125318
000080 f0 c4 9a 3d 49 6a 13 3d da d4 c3 bb de 08 e9 3b
       0.07557094 0.035990033 -0.0059763016 0.0071116528
000090 9b e6 8d be 16 d2 9f bd f7 a2 a1 3c 4d 79 c9 bd
       -0.27715 -0.078037426 0.019731028 -0.098375894
0000a0 4a 52 9b bd 75 d9 f4 bc d9 6f 2e be 59 e4 17 be
       -0.07584055 -0.029888848 -0.17034854 -0.14833201
0000b0 ed a2 35 be b5 0b 28 3d e4 72 73 bd 43 6a 40 be
       -0.17737933 0.04102679 -0.05943574 -0.18790536
0000c0 3a a5 e0 3d 9b 66 ca 3d 9f 33 4f 3d 54 f7 31 3e
       0.109690145 0.09882852 0.05058634 0.17379504
0000d0 ae 30 02 bd d3 60 89 3d a5 86 7f 3d 64 5e 6e bd
       -0.031784706 0.06707921 0.062384266 -0.058195487
0000e0 83 23 b5 3d 12 63 16 bd a2 1d 51 bd b0 1b d9 bd
       0.08844664 -0.036715575 -0.05105365 -0.10600984
0000f0 7a c1 24 3b 60 5e cc bd e2 dc 31 bd 0b 7b 77 bd
       0.0025139735 -0.09978938 -0.04342354 -0.060420077
000100 27 29 28 3d fa 51 4a bd ce 74 5f bd 17 a2 6f bd
       0.04105487 -0.049394585 -0.054554753 -0.05850419
000110 dd b3 7b 3d 25 91 1d be 6d 34 c2 bd 44 6e 16 bd
       0.061450828 -0.153874 -0.09482656 -0.03672625
000120 c2 1e 23 be 71 21 6d 3c 82 7c 1a be 2d 13 17 bb
       -0.15929702 0.014473305 -0.15086558 -0.00230522
000130 b3 a9 14 3d 1e 4e ba be 74 e7 94 3d d8 fb 87 bd
       0.03629465 -0.36387724 0.07270709 -0.06639832
000140 b5 a8 3c 3e df e3 49 bd 8c fc c3 bd 3a 6e 7e be
       0.18423732 -0.04928958 -0.09569654 -0.24846736
000150 5b 78 8f bd a0 c6 87 bd b8 e9 47 3d 77 a5 7f bd
       -0.07005378 -0.066296816 0.048806876 -0.06241366
000160 6b c0 05 bd 4d d6 bb bd f4 e0 e6 bd 97 02 07 be
       -0.032654207 -0.09171734 -0.11273375 -0.13184582
000170 5b 2d 4f 3d 8b 9c a3 bd 64 03 84 3d 1b 5c 72 3c
       0.050580364 -0.079888426 0.06445959 0.0147924675
000180 fb c9 81 3d 91 58 a5 bd 54 1c 3a 3d 54 72 17 be
       0.06337353 -0.08073533 0.045437172 -0.14789706
000190 fb d5 c0 bc e6 ec 94 bd ce ef 2b be f7 6d fe bd
       -0.023539534 -0.07271747 -0.16790697 -0.12423318
0001a0 a7 a2 01 3d e2 38 01 bd b8 f5 0f be ba e9 59 3d
       0.031649258 -0.03154839 -0.14058578 0.053201415
0001b0 81 a1 c4 bd fc cc c2 bc f1 0c 08 3c 73 8e a3 bc
       -0.09601117 -0.023779385 0.008303867 -0.019965386
0001c0 f3 ab 08 bd d1 1a dd 37 a2 44 f3 bd 96 89 e5 bc
       -0.03336711 2.635774e-05 -0.11878325 -0.028019708
0001d0 e2 21 80 bc 6c af b5 3d 82 fd d4 bc 50 ee 95 3b
       -0.015641157 0.0887135 -0.025999788 0.004575528
0001e0 fc 05 98 bc e2 d1 23 bd b5 e9 d8 bc 28 3c 2e bc
       -0.018557541 -0.03999508 -0.026478628 -0.01063446
0001f0 cc 0f 83 3a 42 83 01 be a1 a2 08 bd e1 fb 86 3d
       0.0009999215 -0.12647727 -0.03335822 0.06591011
000200 2b 49 96 bc dc d1 92 be 8e c7 81 bc 6f 49 54 be
       -0.018345436 -0.28675735 -0.015842225 -0.20731138
000210 08 cc 78 3b 8b 29 26 be e2 6a 93 be 39 e0 0b 3d
       0.003796341 -0.16226785 -0.28792483 0.034149382
000220 a8 c6 5d 3e d1 82 c4 bd 53 b9 31 be 03 f4 25 3c
       0.21657813 -0.09595264 -0.17355852 0.010128978
000230 c9 01 c2 bd 6d 0f 06 be bb 74 77 bd 27 0f 0d be
       -0.09472997 -0.13091822 -0.060414057 -0.13775311
000240 e2 b2 00 be 4c c6 7a be e4 e7 9b be dd 04 27 bd
       -0.12568238 -0.24489707 -0.30450356 -0.040776122
000250 8a 68 f3 3b 02 c6 a4 3c f5 9f 82 bd ee 19 3b bd
       0.0074282335 0.020113949 -0.06378166 -0.045679025
000260 b2 79 70 3d 85 2a c3 bd db 47 16 be f9 fc c8 bb
       0.058709808 -0.09529594 -0.14675848 -0.0061336723
000270 01 9a 2a bd 82 88 64 bd 1c 63 cb bd cc d9 51 be
       -0.041650776 -0.055794246 -0.09931013 -0.20493239
000280 7f 65 be bd cd 0b 1a 3f 5f 92 57 3b d9 1e 9b 3c
       -0.092967026 0.60174257 0.003289364 0.018935608
000290 cc 73 6b be db bf 2e 3d b0 1d ca bd e3 82 b9 3d
       -0.22993392 0.042663436 -0.09868944 0.09058168
0002a0 35 4f 8c 3e 0c 51 1c be 70 b5 3b be 6b 35 bb bc
       0.2740418 -0.15265292 -0.18330932 -0.02285262
0002b0 6c f3 bc bb 2f 3e 19 3b bb 4b ed 3b 4e 2a 12 be
       -0.005766323 0.0023383012 0.007241694 -0.1427395
0002c0 ca 5e 0d be 66 17 92 be ec 96 e3 bd ac 8d c1 3b
       -0.1380569 -0.28533477 -0.111127704 0.005906781
0002d0 b4 d0 e2 bd 67 9f bf 3e 62 b0 b2 bd f8 6a 05 be
       -0.11074963 0.37426302 -0.087250486 -0.13029087
0002e0 d9 a1 19 be 76 87 40 3d be e5 8e bd cf 07 20 bd
       -0.15003146 0.047004186 -0.069774136 -0.039069947
0002f0 51 d2 33 be a1 a5 b8 bd 72 a0 23 be e1 e6 25 be
       -0.17560698 -0.09015966 -0.15979174 -0.16201355
000300 bb d2 5b 3d 3e 20 93 3e c7 45 ff 3d 99 27 a0 bc
       0.053667765 0.28735536 0.12464481 -0.019550132
000310 a4 1a f2 3d 8f 47 b4 bd 90 2a 5a 3d 16 ba c0 3e
       0.118214875 -0.08802711 0.053263247 0.37641972
000320 80 39 9c bc 0d b9 8c 3d ad 99 51 3d 8f bd 85 bc
       -0.019070387 0.06871233 0.051171947 -0.01632574
000330 a9 5b 01 be ed fa c7 bb e4 0a b0 3e e9 df 71 bd
       -0.12632622 -0.0061029107 0.3438331 -0.059051428
000340 e6 55 d7 3c 46 fd 17 3e 3f ee d1 3c 59 dd f2 bd
       0.026286077 0.1484271 0.0256263 -0.11858625
000350 1e c5 63 3e a6 53 97 3e c1 e4 b8 bd 4f 23 b0 3c
       0.22243163 0.29556006 -0.09028006 0.021501211
000360 97 fb 90 be 62 8a 62 be 45 73 74 be 63 da 2e be
       -0.28316948 -0.22123101 -0.23872097 -0.17075495
000370 f2 a3 7b be 13 62 05 be e2 18 1a 3e f5 3f 27 be
       -0.24574259 -0.13025694 0.15048555 -0.16332991
000380 57 a2 bd bd 0b 29 35 3e 53 ac 3b bc 74 bb 89 bd
       -0.092594795 0.17691438 -0.0114546595 -0.06725207
000390 03 ff 9e bd 66 18 93 bd a2 44 cd bd 53 59 b2 bc
       -0.077634834 -0.07182388 -0.10022856 -0.021771109
0003a0 9b 77 bc bd 01 ce 16 be 5d 7f 36 3e 24 5d 0e 3d
       -0.092025004 -0.14727022 0.17822023 0.034756795
0003b0 c7 b9 ef bd 0e b9 ce bd c8 12 13 3b cd 4a 71 bc
       -0.11705356 -0.1009389 0.0022441614 -0.014727307
0003c0 79 1a 3b be 5c 5c eb 3b 0c 28 08 be e3 93 33 bd
       -0.18271817 0.007182641 -0.13296527 -0.043842208
0003d0 da b7 a4 3e de 9c 1f 3c 02 9e 3a bc b9 0f c9 3d
       0.32171518 0.00974199 -0.011390211 0.09817452
0003e0 a3 f8 54 3e b2 e1 63 be 3e ef 95 3d b7 67 3b be
       0.20797972 -0.22254065 0.073210225 -0.18301283
0003f0 ba 33 8f be 8a 25 bd be 0f 02 f3 bd ce b9 12 b9
       -0.27969152 -0.36942703 -0.11865627 -0.00013992863

fc3.bias f4 [128]
000000 40 b3 29 be 38 a2 1b 3f db e4 90 be 9f b0 51 be
       -0.16572285 0.607944 -0.28299603 -0.20477532
000010 bf 01 25 3f 90 f9 37 be 9a 5d 28 3f 8a 00 7f 3e
       0.6445579 -0.17966294 0.65767825 0.2490255
000020 93 c6 26 bf 0b 0e 82 bc 35 f1 18 3f 0c e6 ed 3d
       -0.6514675 -0.015875837 0.5974305 0.116161436
000030 f6 2f f2 bd 1f 15 bd bd d5 b6 ab bd 39 2a 83 be
       -0.11825554 -0.09232544 -0.08384482 -0.2561815
000040 72 39 80 bd 07 0c 96 be 30 c8 aa be e9 d4 0d be
       -0.06260957 -0.2930605 -0.33355856 -0.1385075
000050 31 90 32 3f 31 8a bb 3e 71 74 83 be f8 0e f6 3e
       0.6975127 0.3662887 -0.25674775 0.48058295
000060 d9 69 3b bc 03 ce e6 be 64 e6 ce 3f 94 68 92 be
       -0.01143881 -0.4507905 1.616406 -0.28595412
000070 d9 1a ca bd 0a 4b 1b be c9 d9 51 bd 64 b8 81 bc
       -0.09868402 -0.15165344 -0.051233087 -0.015834995
000080 cf b6 38 be d5 f5 45 bd 1e 9c 92 be e3 d7 0d 3e
       -0.18038486 -0.048330147 -0.28634733 0.13851885
000090 d9 66 fe 3d ac 47 76 3d 44 7a 80 bd ae 54 3a 3f
       0.124219604 0.060126945 -0.0627332 0.7278546
0000a0 eb 01 8d bc 32 9e fd 3d 50 90 b8 bd e0 8f 45 be
       -0.017212829 0.12383689 -0.090119004 -0.19293165
0000b0 ee 24 6e 3e 6f 73 83 be 9c 88 fd 3e 62 aa e6 bd
       0.23256275 -0.25674006 0.49518287 -0.11262967
0000c0 cb 1c 15 be 83 07 c2 bc e2 c8 f1 3e 16 0d 41 bf
       -0.14561765 -0.023685222 0.47223574 -0.7541059
0000d0 33 df 53 3e cf 28 2d be 66 51 d9 3e ec 02 33 be
       0.20690612 -0.16910098 0.42444915 -0.17481583
0000e0 f1 16 77 3e f5 7a c2 bd 72 f5 2e be 91 40 15 3e
       0.24129845 -0.094961084 -0.17085817 0.14575411
0000f0 a7 f2 88 3f 13 d8 bd bd 6e 2a af 3c 2a 63 33 bb
       1.0699052 -0.092697285 0.021382537 -0.0027372339
000100 fb 86 33 be 85 81 26 be 50 3a b4 bd 56 a5 06 be
       -0.1753196 -0.16260345 -0.08800185 -0.13149008
000110 10 41 b8 bd 63 5d 3b 3f e5 df 83 3f 02 81 82 bd
       -0.08996785 0.7318937 1.0302702 -0.063722625
000120 3d 61 c6 bd 2e 0a a4 3e 0a 03 ae bd 15 0c ac bd
       -0.096865155 0.32039016 -0.084966734 -0.08400742
000130 bf 04 8c bd fc 68 67 3f 81 7e c2 bd ae 94 ef bd
       -0.06836843 0.9039457 -0.09496785 -0.1169828
000140 ab bd 32 3f 65 3c e2 bd 89 71 83 3e 4e 97 f7 bd
       0.6982066 -0.110466756 0.25672558 -0.12089406
000150 25 7a 8e be 7e 51 32 bc 77 b1 be bd 2f d8 92 3e
       -0.27827564 -0.010883687 -0.093111925 0.2868056
000160 b4 0a 90 bc 1c 92 b2 bd f1 18 08 3f d0 eb cf bd
       -0.017583229 -0.087192744 0.5316306 -0.101523995
000170 c3 6e b3 3e 91 7d ee bd 99 79 87 bd 01 cc 01 be
       0.35045442 -0.11645044 -0.0661499 -0.12675478
000180 84 fe c5 3c 7f 0b 47 bf 99 4e 3f be a5 3c 6e 3f
       0.024169214 -0.77751917 -0.18682326 0.93061286
000190 b4 0e b7 3d a2 db 11 be 30 22 26 3e 6b 3a b7 bd
       0.08938351 -0.1424394 0.16223979 -0.08946689
0001a0 c3 92 4a 3f 1f e7 91 be 3f f2 2c be 94 9f 08 bd
       0.7913019 -0.28496644 -0.16889285 -0.03335531
0001b0 aa 1d 82 3d bc 95 7c 3e 79 74 a8 3a c1 7e 8d 3f
       0.06353314 0.24666494 0.0012852094 1.1054307
0001c0 97 e5 8b be f8 e1 33 be 31 e5 1c 3f 00 d0 a7 3c
       -0.273236 -0.17566669 0.6128722 0.020484924
0001d0 3c a2 4d be 3f 21 12 bf 96 e0 76 be 34 3a 74 3e
       -0.20081419 -0.5708198 -0.2410911 0.23850328
0001e0 a8 25 7a bd e6 10 36 be f6 2f 53 be c3 1d 8d bf
       -0.061071068 -0.17779884 -0.20623764 -1.1024708
0001f0 d1 3c 30 be fc ef 04 3e d5 f4 32 be b7 2e 3f bd
       -0.172107 0.12982172 -0.17476209 -0.04667541

fc4.weight f4 [6, 128]
000000 ae e4 0a be e0 26 64 3e 45 59 1b 3e 33 14 e2 bc
       -0.13563797 0.22280455 0.15170772 -0.027597522
000010 d6 92 77 3d 74 84 96 be 3a 4c 3e 3d b4 15 96 bd
       0.060442768 -0.2939793 0.046459414 -0.07328358
000020 34 04 1f bf 50 51 08 bd 6a d4 84 3c 14 f6 98 bc
       -0.6211579 -0.03328067 0.016214568 -0.018672027
000030 ab e4 74 bf ba 5c a7 3c e7 c4 8e bc cc 6f 0f be
       -0.9566142 0.020429958 -0.017427875 -0.14007491
000040 37 65 d0 bd ed ea bc be f0 eb b4 3e fc 22 12 bd
       -0.10175555 -0.36897984 0.35336256 -0.035677895
000050 ce 66 c5 bf 4b 57 42 3d e4 fa f3 be 75 cb 25 be
       -1.5421999 0.04744653 -0.47652352 -0.16190894
000060 a3 35 b6 bd 64 61 4c bf 5e d7 03 be 14 dd f4 3d
       -0.08896949 -0.79836106 -0.12875125 0.1195623
000070 89 b0 20 3d fd 14 c8 bd ef 22 35 bd ea a6 54 be
       0.039230857 -0.09769628 -0.04422277 -0.20766798
000080 8d 15 14 3d 4a 6f b9 3c 12 f6 ff bd 1e 87 70 3c
       0.036153365 0.022636075 -0.12498106 0.014680652
000090 44 6a d3 3d 1e 5f 09 be 5c 57 0e bd ae 41 92 be
       0.10323003 -0.1341519 -0.03475128 -0.28565735
0000a0 05 5b b5 3c f6 16 5b bd b9 e3 8f bd 45 d7 47 3e
       0.022138128 -0.053488694 -0.070258565 0.19515713
0000b0 61 d0 19 3e 6e 6a 14 bf f1 a2 c0 3c 9b 63 09 be
       0.15020896 -0.579749 0.023515197 -0.13416903
0000c0 80 a5 11 3d d5 4f ea bc c0 25 09 3e 15 ad 62 bf
       0.035558224 -0.02860252 0.13393307 -0.8854535
0000d0 c3 c0 1d 3d 61 84 02 bd 85 53 84 3c d3 77 b0 bf
       0.03851391 -0.031864528 0.016153106 -1.3786567
0000e0 2e 1c 43 3d 23 8b 1b bd b6 65 57 3d 57 4a 11 3d
       0.047634296 -0.037974488 0.052587233 0.035471287
0000f0 1f de d7 3e 28 e7 20 3e dc 05 0a bd 4a 84 57 bc
       0.42161652 0.15713179 -0.033696994 -0.013154099
000100 93 b2 42 bd 0b e7 14 3d 73 52 91 be d8 31 07 bd
       -0.047533583 0.036353152 -0.28383216 -0.03300652
000110 30 de 49 bd c0 ee e3 3e fd fb 0c 3e 91 1f 4a bd
       -0.04928416 0.4451809 0.13768001 -0.04934651
000120 90 61 cd 3e 9c c2 4a be 30 7d 3e 3b f7 09 ed bd
       0.40113497 -0.198008 0.0029066317 -0.11574166
000130 2b 6e 7c bd a7 ca 4e 3e f1 15 e4 3c 6a 7c 0f bd
       -0.0616285 0.20194493 0.027842494 -0.03503076
000140 35 8d 07 3e c5 68 c4 bc 6b e7 25 3e a8 60 ae bc
       0.1323746 -0.02397574 0.1620156 -0.021286324
000150 7b e6 d2 bf 21 b1 0d be c9 07 d6 bf b8 64 23 be
       -1.6476587 -0.138371 -1.6721126 -0.1595639
000160 7b 0f bc bc 52 f6 5c 3d 67 f7 99 3c 16 87 85 bd
       -0.0229566 0.053945847 0.018794728 -0.06519906
000170 71 76 26 37 cd a7 0f be 69 fd 25 be 61 12 71 be
       9.921948e-06 -0.14028855 -0.1620995 -0.23542167
000180 c6 32 4e be 13 b7 23 bf 68 3d 6b bd 2c f3 a5 bc
       -0.20136556 -0.63951224 -0.05743161 -0.020257555
000190 70 14 69 bf d0 48 12 3d 91 07 6b bc f7 2f 3d be
       -0.9104681 0.03571397 -0.014345066 -0.18475328
0001a0 c9 a8 51 3e 22 23 44 3d 3f b6 80 3c d1 4e 36 be
       0.20474543 0.047885068 0.015711902 -0.17803504
0001b0 aa 5d 22 bf f8 91 e1 be c0 0a 25 bc 0d 54 9d 3e
       -0.6342417 -0.44056678 -0.010073364 0.30728188
0001c0 0f aa 71 be 9a 99 6e be ca 35 2b 3d 50 a4 9b be
       -0.23600028 -0.23300782 0.041799344 -0.30398798
0001d0 eb 29 81 bc a8 1a 28 bf 98 0e b7 be a6 d9 89 bf
       -0.015767058 -0.65665674 -0.35753322 -1.0769546
0001e0 68 5a 8e bd 85 ad d5 be f5 67 c6 bd 88 06 eb bf
       -0.069508374 -0.41733947 -0.09687797 -1.8361368
0001f0 b0 e1 e7 bd 6a 8d 97 bd 3b 51 91 bc 4f b6 a3 bf
       -0.11322343 -0.074000195 -0.017738929 -1.2790011
000200 c4 e4 5d bd 49 19 f1 bd 2d 33 5d bd b5 00 8b 3d
       -0.054173246 -0.11772401 -0.054003883 0.06787244
000210 5d 2e 8b be 49 4d 1c be 75 47 a8 be 56 b7 d6 bc
       -0.2718381 -0.15263857 -0.32867017 -0.026210468
000220 71 67 01 be a7 58 e4 3c 49 5f ea 3b 53 e3 b4 bd
       -0.12637116 0.027874304 0.007152472 -0.08832421
000230 81 ed 65 3d c7 08 95 3d c9 cd 10 3d f3 e0 0d 3d
       0.056134705 0.07277065 0.035352502 0.034638356
000240 09 40 bb bc 16 7d 2a 3d 84 4f 35 be 00 4f d2 3b
       -0.022857683 0.041623197 -0.17706114 0.006418109
000250 00 51 f9 bd 27 30 5d bd 14 0c 14 bd 0b a2 24 3d
       -0.12173653 -0.054001 -0.03614433 0.0401936
000260 15 0c 9a bd 99 c9 b6 bd c2 03 9a bd a6 d8 49 be
       -0.07521836 -0.089251705 -0.07520248 -0.19711551
000270 19 52 52 bd 3b c4 a7 3b 34 b5 26 3d f5 e5 f5 ba
       -0.051347826 0.005119828 0.040700153 -0.0018760549
000280 15 74 ce 3d 4a b4 ee bd f0 df b9 bd 30 3a 54 3c
       0.10080735 -0.11655481 -0.09075916 0.012953326
000290 35 a7 c8 bd f6 7c a2 bd cc 5e 99 bb 3a f6 01 bd
       -0.09797517 -0.07933991 -0.00468049 -0.03172896
0002a0 84 66 cc 3c 49 c1 d6 bd ab 19 81 bc d6 cc 09 3e
       0.024951227 -0.10486085 -0.01575931 0.13457045
0002b0 9b 6a 76 bd 29 32 da 3d 9a 13 7e 3d 46 f8 07 3c
       -0.06016026 0.106540985 0.062030412 0.008298939
0002c0 d0 ee af 3c 0f 2a 4a 3c b5 85 c1 be af 3b 62 be
       0.02147618 0.012339129 -0.37797323 -0.2209308
0002d0 ff 92 bd bd ff 62 b5 bd 98 98 03 3d 8c 5d 2d be
       -0.09256553 -0.08856773 0.032127947 -0.16930217
0002e0 55 f1 99 3d b9 51 c2 3c aa e1 7a 3d 19 cb 84 bd
       0.075167336 0.023720609 0.061250366 -0.0648405
0002f0 3d 90 e1 be 91 7b 35 3c b9 12 2b bb a1 ce b8 3c
       -0.44055358 0.011076824 -0.002610369 0.022559466
000300 90 b6 ea bc 9a 43 81 3d 52 df b0 3c fc 9a b2 3c
       -0.028651506 0.06311722 0.021590862 0.021802418
000310 b5 6f 6c 3d 1a 24 a6 bd be e6 8c be 20 70 bb bc
       0.05772372 -0.081123546 -0.27519792 -0.022880614
000320 56 28 10 be c9 3f 07 be f7 31 b0 bd 22 ab 08 bb
       -0.14077887 -0.13207926 -0.0860328 -0.0020853956
000330 33 b5 0d bd 8d 51 31 bd c2 a1 cf 3b 08 7a 30 3c
       -0.034596633 -0.043290664 0.0063364217 0.010771282
000340 fb 97 3a be f6 98 20 3d 26 2c 85 be 2e 13 96 bd
       -0.18222038 0.039208375 -0.26010245 -0.07327877
000350 d7 11 53 be 6d 7c 1b 3c 5a d3 31 be cd f0 a6 3a
       -0.20612274 0.009490115 -0.1736578 0.0012736559
000360 d1 70 8b bc 0a 25 9e bb 89 e1 fe bd 88 8e 0c 3c
       -0.017021568 -0.0048261927 -0.12445361 0.008578904
000370 76 2f 95 bd 8f 33 ab 3d 46 e8 84 3d d3 b0 ab 3d
       -0.07284443 0.083594434 0.06489615 0.08383336
000380 d3 8e 9f bd aa 93 97 bd 4a d8 39 3d dd 9c 83 be
       -0.077909134 -0.074012116 0.045372285 -0.25705615
000390 73 d7 49 bd b0 02 3c bd 8d 1a 21 bd ff 9c 46 be
       -0.049277734 -0.045901 -0.03933196 -0.19395827
0003a0 70 a7 cc be 2f 0d 9e 3d ed f2 d5 3b b4 72 55 3c
       -0.39971495 0.07717358 0.006529203 0.013027836
0003b0 db 84 09 3e d0 46 aa bd d0 94 20 be db e4 bf be
       0.13429587 -0.08314288 -0.15681767 -0.3747929
0003c0 d2 1e 51 be 99 d0 bc 3c 5a b5 8b be 22 73 0e 3c
       -0.20421913 0.023048686 -0.27286798 0.008694442
0003d0 34 d2 a6 3d 6b 40 4c 3d f4 94 0d be cb 87 27 3e
       0.08145562 0.04986612 -0.13826352 0.16360395
0003e0 b8 cf b8 3b ef 98 76 3d 7a 9b 25 be b9 90 c9 bd
       0.0056399964 0.060204443 -0.16172591 -0.09842057
0003f0 91 0e 6e 3c 59 b4 5e bd ac ab 78 bd cb 68 27 3d
       0.01452984 -0.05437121 -0.060710594 0.040871423

fc4.bias f4 [6]
000000 fc 49 9a 3f 0e a6 28 3f 97 8c 1d be 64 7d 8f bf
       1.2053828 0.6587838 -0.15385662 -1.1210141
000010 00 60 fd be 83 06 00 be
       -0.49487305 -0.12502484
